…
al_crossentropy', metrics=['accuracy'])\nmodel.summary()\n\n# Train\nhistory = model.fit(x_train, y_train_cat, batch_size=128, epochs=10, validation_split=0.1,verbose=0)\n\n# Evaluate\ntest_loss, test_acc = model.evaluate(x_test, y_test_cat, verbose=0)\nprint(f\"Test Accuracy: {test_acc:.4f}\")\n\n\nModel: \"sequential\"\n\n\n\n┏━━━━━━━━━━━━━━━━━━━━━━━━━━━━━━━━━┳━━━━━━━━━━━━━━━━━━━━━━━━┳━━━━━━━━━━━━━━━┓\n┃ Layer (type)                    ┃ Output Shape           ┃       Param # ┃\n┡━━━━━━━━━━━━━━━━━━━━━━━━━━━━━━━━━╇━━━━━━━━━━━━━━━━━━━━━━━━╇━━━━━━━━━━━━━━━┩\n│ conv2d (Conv2D)                 │ (None, 26, 26, 32)     │           320 │\n├─────────────────────────────────┼────────────────────────┼───────────────┤\n│ max_pooling2d (MaxPooling2D)    │ (None, 13, 13, 32)     │             0 │\n├─────────────────────────────────┼────────────────────────┼───────────────┤\n│ conv2d_1 (Conv2D)               │ (None, 11, 11, 64)     │        18,496 │\n├─────────────────────────────────┼────────────────────────┼───────────────┤\n│ max_pooling2d_1 (MaxPooling2D)  │ (None, 5, 5, 64)       │             0 │\n├─────────────────────────────────┼────────────────────────┼───────────────┤\n│ flatten (Flatten)               │ (None, 1600)           │             0 │\n├─────────────────────────────────┼────────────────────────┼───────────────┤\n│ dense (Dense)                   │ (None, 128)            │       204,928 │\n├─────────────────────────────────┼────────────────────────┼───────────────┤\n│ dropout (Dropout)               │ (None, 128)            │             0 │\n├─────────────────────────────────┼────────────────────────┼───────────────┤\n│ dense_1 (Dense)                 │ (None, 10)             │         1,290 │\n└─────────────────────────────────┴────────────────────────┴───────────────┘\n\n\n\n Total params: 225,034 (879.04 KB)\n\n\n\n Trainable params: 225,034 (879.04 KB)\n\n\n\n Non-trainable params: 0 (0.00 B)\n\n\n\nTest Accuracy: 0.9918",
    "crumbs": [
      "Syllabus",
      "🧠 Module 3: Deep Learning",
      "Detailed Notes"
    ]
  },
  {
    "objectID": "modules/module3_notes.html#boltzmann-machines-and-energy-based-models",
…
